
------------------------------------------------------------
  FCNN_7x8_1
FCNN(
  (net): Sequential(
    (0): Linear(in_features=1, out_features=8, bias=True)
    (1): Mish()
    (2): Linear(in_features=8, out_features=8, bias=True)
    (3): Mish()
    (4): Linear(in_features=8, out_features=8, bias=True)
    (5): Mish()
    (6): Linear(in_features=8, out_features=8, bias=True)
    (7): Mish()
    (8): Linear(in_features=8, out_features=8, bias=True)
    (9): Mish()
  )
  (head): Linear(in_features=8, out_features=1, bias=True)
)
------------------------------------------------------------

Epoch      1 | MSELoss: 0.559896 | BCEWithLogitsLoss: 0.5676
Epoch     10 | MSELoss: 0.389720 | BCEWithLogitsLoss: 0.7467
Epoch     20 | MSELoss: 0.359678 | BCEWithLogitsLoss: 0.7049
Epoch     30 | MSELoss: 0.349800 | BCEWithLogitsLoss: 0.7155
Epoch     40 | MSELoss: 0.331326 | BCEWithLogitsLoss: 0.7145
…
Epoch    920 | MSELoss: 0.007610 | BCEWithLogitsLoss: 0.4163
Epoch    930 | MSELoss: 0.007585 | BCEWithLogitsLoss: 0.4169
Epoch    940 | MSELoss: 0.007565 | BCEWithLogitsLoss: 0.4172
Epoch    950 | MSELoss: 0.007549 | BCEWithLogitsLoss: 0.4173
Epoch    960 | MSELoss: 0.007536 | BCEWithLogitsLoss: 0.4175
Epoch    970 | MSELoss: 0.007525 | BCEWithLogitsLoss: 0.4172
Epoch    980 | MSELoss: 0.007516 | BCEWithLogitsLoss: 0.4173
Epoch    990 | MSELoss: 0.007508 | BCEWithLogitsLoss: 0.4172
Epoch   1000 | MSELoss: 0.007503 | BCEWithLogitsLoss: 0.4168

------------------------------------------------------------
  CNN_7x8_1
CNN(
  (conv): Sequential(
    (0): Conv1d(1, 8, kernel_size=(1,), stride=(1,))
    (1): Mish()
    (2): Conv1d(8, 8, kernel_size=(3,), stride=(1,), padding=(1,))
    (3): Mish()
    (4): Conv1d(8, 8, kernel_size=(3,), stride=(1,), padding=(1,))
    (5): Mish()
    (6): Conv1d(8, 8, kernel_size=(3,), stride=(1,), padding=(1,))
    (7): Mish()
    (8): Conv1d(8, 8, kernel_size=(3,), stride=(1,), padding=(1,))
    (9): Mish()
  )
  (head): Conv1d(8, 1, kernel_size=(1,), stride=(1,))
)
------------------------------------------------------------

Epoch      1 | MSELoss: 0.369393 | BCEWithLogitsLoss: 0.7065
Epoch     10 | MSELoss: 0.348700 | BCEWithLogitsLoss: 0.7122
Epoch     20 | MSELoss: 0.329067 | BCEWithLogitsLoss: 0.7131
Epoch     30 | MSELoss: 0.294436 | BCEWithLogitsLoss: 0.6861
Epoch     40 | MSELoss: 0.292905 | BCEWithLogitsLoss: 0.6809
…
